GNNInterpreter-Most-Recent-Version/ckpts/reddit.pt (torch, 104619 bytes, 14 tensors)

conv.convs.0.bias f4 [64]
0	0xbdb9dc8e	-0.090752706
1	0x3d8afcb7	0.06786483
2	0x3d58061e	0.05274021
3	0x3d516b97	0.051127996
4	0x3d68b3f7	0.056812253
5	0x3ab0c17a	0.0013485395
6	0xbda2af36	-0.07943575
7	0xbdd20adc	-0.102559775
8	0xbd879b85	-0.0662146
9	0x3d1855a9	0.037191067
10	0xbb91cc14	-0.004449377
11	0xbdba2f7f	-0.090910904
12	0xbc356398	-0.011071108
13	0xbda2ece8	-0.079553425
14	0x3d92dbaf	0.071708076
15	0x3c1824b0	0.009286091
16	0x3de4994f	0.11162054
17	0xbd8141e7	-0.06311398
18	0xbc925fab	-0.017867884
19	0xbd154214	-0.03643997
20	0x3d2cdda2	0.042203553
21	0xbc985f12	-0.01860002
22	0xbd0054b8	-0.031330794
23	0x3dc0603e	0.09393357
24	0x3d4e3285	0.050341148
25	0x3d7b0f7b	0.06129406
26	0x3dbac4bd	0.09119556
27	0x3d4ffa5d	0.050775874
28	0xbd5acc1d	-0.053417314
29	0x3dd06bfd	0.10176847
30	0x3cef6d7e	0.029227015
31	0x3d034cd2	0.032055683
32	0x3db8ce36	0.090237066
33	0x3bf9298e	0.0076038307
34	0xbd210ce7	-0.039318945
35	0x3d5456ff	0.05184078
36	0x3d50eea6	0.051008843
37	0x3d97372f	0.07383572
38	0xbdf1f440	-0.11814165
39	0x3da26ed0	0.07931292
40	0xbd2ca184	-0.04214622
41	0x3c7bf533	0.015378284
42	0xbd5eae63	-0.054365527
43	0x3c1a6c06	0.009425169
44	0x3cd7b1b7	0.026329858
45	0xbd8963b2	-0.067084685
46	0x3d69e1bb	0.05710004
47	0xbc61c39e	-0.013779549
48	0x3daae28c	0.08343992
49	0xbda51a4e	-0.08061658
50	0xbd625d99	-0.055265043
51	0xba8cc740	-0.0010740533
52	0x3d97946c	0.07401356
53	0x3de4993b	0.11162039
54	0x3c2158aa	0.009847799
55	0xbc05ff65	-0.008178567
56	0x3d7b37d3	0.061332535
57	0xbb148e12	-0.0022667688
58	0xbd6759fb	-0.056482296
59	0xbd498b5f	-0.04920518
60	0x3905cc2a	0.00012759925
61	0xbdeafe3e	-0.11474274
62	0x3d8177e3	0.06321695
63	0x3dafc59f	0.08582615

conv.convs.0.lin.weight f4 [64, 1]
0	0xbda72f5a	-0.081633285
1	0xbd1d3792	-0.038383074
2	0xbdc46af2	-0.09590711
3	0xbdd73dac	-0.1050981
4	0x3e649e90	0.22326112
5	0x3e60e914	0.21963912
6	0x3e01629d	0.12635274
7	0x3e5cc2b0	0.21558642
8	0x3d8c7a98	0.068593204
9	0x3d0da3fd	0.03458022
10	0xbd998d9d	-0.07497714
11	0x3e7443e7	0.23854028
12	0xbe3d9ac0	-0.18516064
13	0x3e28dc0d	0.16490193
14	0xbcb44173	-0.022003865
15	0xbdea67f3	-0.11445608
16	0xbc8d804f	-0.017273096
17	0x3e10ebf3	0.14152507
18	0xbe676985	-0.22598846
19	0xbe6698b3	-0.22519188
20	0xbd518e81	-0.051161293
21	0xbe8ddc75	-0.27707258
22	0x3d045165	0.032304186
23	0xbdf0ff95	-0.117674984
24	0xbe88ad86	-0.26694888
25	0xbd952dcb	-0.07284125
26	0xbdcac406	-0.0990067
27	0xbbda05a0	-0.0066535026
28	0x3e3ce345	0.18446071
29	0xbd00c8ad	-0.03144138
30	0xb950c736	-0.00019910638
31	0x3dfd1d01	0.12359048
32	0x3dc3bbe1	0.095573194
33	0x3c7152ed	0.014729244
34	0x3d670c96	0.056408487
35	0x3e3a3f40	0.1818819
36	0xbe722a11	-0.2364886
37	0xbd931c07	-0.0718308
38	0x3e5a9dd1	0.21349265
39	0xbd01bd08	-0.031674415
40	0x3e0f815c	0.1401419
41	0xbe74c580	-0.23903465
42	0x3d2b4d75	0.041821916
43	0xbb12a7cf	-0.0022377854
44	0xbe69f40b	-0.22847001
45	0x3d6b4a0c	0.057443663
46	0xbc6f565f	-0.014607995
47	0xbe5f456e	-0.21803829
48	0xbd619841	-0.05507684
49	0x3e401eb6	0.18761715
50	0x3d52b198	0.051438898
51	0xbe3f6bee	-0.18693516
52	0xbe07eba5	-0.13273485
53	0xbd7ad838	-0.06124136
54	0xbd8db0f2	-0.06918515
55	0x3d190405	0.03735735
56	0xbe03c441	-0.12867834
57	0x3e332a43	0.1749659
58	0x3e088c98	0.13334882
59	0x3e587373	0.2113779
60	0xbca99a3a	-0.020703424
61	0x3e57731b	0.21040003
62	0xbe38aaf4	-0.18033963
63	0xbdc0880e	-0.0940095

conv.convs.1.bias f4 [64]
0	0x3d3fc817	0.04682168
1	0x3997aa1e	0.00028927712
2	0xbd454b73	-0.048167657
3	0xbc9a4332	-0.01883087
4	0xbd3c39de	-0.045953624
5	0x3bfe6b21	0.0077642356
6	0x3cf98849	0.030460494
7	0x3c8ba0b8	0.01704441
8	0xbb2d6549	-0.0026458076
9	0xbc4c06d0	-0.012452796
10	0x3cf5d504	0.0300088
11	0xbcba86e0	-0.022769392
12	0x3d1b4030	0.03790301
13	0xbbdf00b2	-0.006805503
14	0xbce10742	-0.027469281
15	0x3d15e5cf	0.036596116
16	0x3cd71cac	0.026258789
17	0x3c5e0abc	0.013552364
18	0x3d40a5e1	0.047033194
19	0x3c3737b8	0.011182718
20	0x3c53423f	0.012894212
21	0xbc4bae7b	-0.012431736
22	0xbccbd0e0	-0.024879873
23	0x3ca92546	0.020647656
24	0xbd2a69e6	-0.0416049
25	0x3c16c31b	0.00920179
26	0x3c4f6516	0.012658378
27	0x3c74e074	0.014946092
28	0xbcd8ec55	-0.02647988
29	0xba7203a2	-0.0009232109
30	0x3accd4b3	0.0015627354
31	0x3c87f42e	0.016595926
32	0xbda43bb2	-0.080191985
33	0xbb67292a	-0.0035272338
34	0x3c6cf14c	0.0144618265
35	0xbc87d9de	-0.01658338
36	0x3cd28056	0.025695961
37	0xbc952e6f	-0.018210618
38	0xbd2ab2f3	-0.041674566
39	0xbd1f4d7e	-0.03889226
40	0x3c8ecced	0.0174317
41	0xbb72fe82	-0.0037077968
42	0x3c9493cb	0.01813688
43	0xbb9b28cf	-0.0047350894
44	0xbc57eae0	-0.013178557
45	0xbcc14c85	-0.023596058
46	0x3d028856	0.0318683
47	0x3c1a3415	0.009411831
48	0xbae235af	-0.0017258431
49	0xbd5281db	-0.05139337
50	0xbc30b93b	-0.01078635
51	0x3c22548b	0.009907852
52	0x3b94112e	0.0045186495
53	0x3ce130a3	0.027489012
54	0x3b54b495	0.0032456268
55	0x3c852a8e	0.016255643
56	0xbc0de107	-0.008659608
57	0xbb227dcf	-0.0024794226
58	0xbc527616	-0.012845537
59	0xbb93d37c	-0.004511295
60	0x3c477b4a	0.0121753905
61	0xbd40babc	-0.047053084
62	0x3d2c0e44	0.042005792
63	0xbb6736a2	-0.0035280366

conv.convs.1.lin.weight f4 [64, 64]
0	0xbe4416ff	-0.19149397
1	0xbe08772a	-0.13326707
2	0x3c073f69	0.008254864
3	0x3e32babe	0.17454049
4	0xbc8f351f	-0.017481385
5	0xbe071bca	-0.13194194
6	0xbd8325f3	-0.064037226
7	0xbd92d86e	-0.07170187
8	0x3c077ce2	0.0082695205
9	0xbd2ecdd8	-0.042676777
10	0x3e1d8f29	0.15386643
11	0xbe090a7d	-0.13382907
12	0x3dbd2eb0	0.092374206
13	0xbdbfb45f	-0.09360575
14	0x3cc3da1c	0.023907714
15	0x3dcd39ce	0.10020791
16	0x3db0bcf7	0.08629792
17	0x3d88d840	0.066818714
18	0x3e51f643	0.20504098
19	0x3cc5973f	0.024119971
20	0x3e239e31	0.15978314
21	0xbe584e94	-0.21123725
22	0x3e14cacc	0.14530486
23	0xbe4aaf0e	-0.1979334
24	0xbd324a66	-0.043527983
25	0xbc984e39	-0.018591987
26	0x3ddfe469	0.10932238
27	0xbe4c7bf4	-0.1996916
28	0x3bd14260	0.0063860863
29	0x3dfa1245	0.12210516
30	0x3e3e4409	0.18580641
31	0xbe1d3dd7	-0.15355621
32	0xbda78140	-0.08178949
33	0x3d6e6142	0.05819822
34	0x3e2dbbfb	0.1696624
35	0xbb2ea8e2	-0.0026650955
36	0xbe628d5c	-0.22124237
37	0x3da4d99f	0.080493204
38	0x3d006d85	0.031354446
39	0xbe3aaf6c	-0.1823098
40	0x3d55f5f7	0.052236523
41	0xbe555c20	-0.20835924
42	0x3e296962	0.16544107
43	0xbe1780e4	-0.14795262
44	0xbdafddb7	-0.085872106
45	0x3db4c32b	0.08826288
46	0x3df43ea1	0.11926008
47	0xbe47d838	-0.19516075
48	0xbe3c0b37	-0.18363653
49	0x3e6ef192	0.2333434
50	0xbda393e6	-0.07987194
51	0xbe4f14f6	-0.2022284
52	0xbe6a19d9	-0.22861423
53	0x3e13ee2e	0.14446327
54	0xbd8527b5	-0.06501714
55	0x3e365c27	0.17808591
56	0xbe563857	-0.2091993
57	0xbd397d8d	-0.04528575
58	0x3e507f94	0.20361167
59	0xbe2dc688	-0.16970265
60	0xbc5c7834	-0.013456393
61	0x3e2681da	0.16260472
62	0x3e0b4a3a	0.13602534
63	0x3d8e0785	0.06935028
64	0x3e14ee07	0.14543925
65	0xbd8b8588	-0.068125784
66	0xbdc3ab62	-0.09554173
67	0x3e0c0058	0.13672006
68	0xbe549579	-0.20760144
69	0xbcc83ba9	-0.02444251
70	0x3e6151f5	0.2200392
71	0x3dbf2d49	0.09334809
72	0x3c12a921	0.008951456
73	0xbd9a002d	-0.07519565
74	0x3ca1cefe	0.019752022
75	0xbd37799c	-0.04479371
76	0xbe1df8cc	-0.1542694
77	0xbd782b1c	-0.060587987
78	0xbe5a2036	-0.2130135
79	0x3e453d03	0.19261555
80	0xbe7b39ee	-0.24533817
81	0x3afb6991	0.0019181242
82	0x3d93b52e	0.07212292
83	0xbe502921	-0.2032819
84	0x3dc66804	0.09687808
85	0xbc843332	-0.016137693
86	0x3cba52b5	0.022744516
87	0x3c3af2d2	0.011410432
88	0xbcc5d9dd	-0.024151737
89	0x3d09de35	0.03365918
90	0x3d9c818b	0.07641896
91	0xbe5c2e94	-0.21502143
92	0xbd0e7695	-0.034781057
93	0xbe2c0017	-0.1679691
94	0xbe07af2c	-0.13250417
95	0x3dffbb0a	0.12486847
96	0xbe4f1ec3	-0.20226578
97	0xbce9c9cc	-0.028538607
98	0x3d5ec057	0.05438265
99	0x3dbcd3fa	0.09220119
100	0x3d989126	0.0744956
101	0xbe58c01d	-0.21167035
102	0x3e643f86	0.22289857
103	0xbc6db687	-0.01450885
104	0x3de52d3f	0.11190271
105	0x3d22b845	0.039726514
106	0x3e7a5032	0.24444655
107	0x3d5ef067	0.054428484
108	0xbdb5ca92	-0.08876528
109	0x3e60d48b	0.21956079
110	0x3b88e715	0.0041779377
111	0x3e3dbb85	0.18528564
112	0xbe485d6e	-0.1956689
113	0x3e26e823	0.1629949
114	0xbd5896a9	-0.052878056
115	0x3e2f0cdb	0.17094748
116	0xbe200298	-0.1562599
117	0x3dafe5ba	0.08588739
118	0x3e34f32c	0.17670888
119	0x3d4e6ee7	0.050398733
120	0xbd242078	-0.040070027
121	0x3e29312c	0.16522664
122	0xbd95536a	-0.072913006
123	0xbd9673ed	-0.0734633
124	0x3daae0cc	0.08343658
125	0x3e3a4e57	0.18193947
126	0xbdfa209a	-0.122132495
127	0xbe6a35ff	-0.2287216
128	0x3da66fc6	0.08126788
129	0x3d86b99b	0.0657837
130	0xbd3d4544	-0.046208635
131	0xbe0d4954	-0.13797504
132	0x3e30c9b2	0.1726444
133	0xbdbaa432	-0.09113349
134	0xbdaea7c7	-0.08528095
135	0xbd1c9fcc	-0.03823833
136	0xbe529538	-0.20564735
137	0x3e01d9a7	0.12680684
138	0xbd4bddab	-0.049771946
139	0x3c83a8b9	0.016071664
140	0x3d7872fa	0.060656525
141	0x3cbc537e	0.02298903
142	0x3e5ba12a	0.21448198
143	0xbdd578f5	-0.10423461
144	0xbdd6a26f	-0.104802005
145	0x3db4708a	0.088105276
146	0xbb87f3ec	-0.004148951
147	0x3bf71e32	0.0075414414
148	0xbcc01924	-0.023449488
149	0x3cb227f3	0.021747565
150	0xbdcd9c31	-0.10039557
151	0x3e029263	0.12751155
152	0xbe209b86	-0.15684327
153	0x3d2e699e	0.042581193
154	0x3e836365	0.2566177
155	0xbe05510a	-0.13019195
156	0xbdcaa788	-0.09895235
157	0x3b73792b	0.003715108
158	0xbe033c04	-0.12815863
159	0x3e16d6eb	0.14730422
160	0xbc097371	-0.00838934
161	0xbde9d7e1	-0.11418129
162	0x3dc3e52f	0.09565198
163	0xbc063697	-0.008191726
164	0xbd93b99a	-0.07213135
165	0xbe2aab26	-0.1666685
166	0xbd0115e7	-0.03151503
167	0x3e5e256c	0.21693963
168	0xbe4d7d23	-0.20067267
169	0x3e3cfa51	0.18454863
170	0x3ddd0b53	0.107931755
171	0x3d4f9732	0.0506813
172	0xbdfd1222	-0.12356974
173	0x3d90c577	0.070689134
174	0x3e3ad015	0.1824344
175	0xbd68a4e5	-0.05679788
176	0xbda0378a	-0.07823093
177	0x3e1834b7	0.14863859
178	0xbc9ace1b	-0.018897107
179	0xbdca4ecb	-0.0987831
180	0x3e04e64e	0.1297848
181	0x3d8b1aac	0.06792197
182	0xbe24f414	-0.16108733
183	0xbdea193c	-0.11430594
184	0x3b9f0ec4	0.004854055
185	0xbd531ab5	-0.05153914
186	0xbe4acac2	-0.19803908
187	0x3e2ca5e9	0.16860165
188	0x3e289837	0.16464315
189	0xbde402e5	-0.111333646
190	0xbdfac691	-0.12244905
191	0xbd74e692	-0.0597902
192	0xbdacb872	-0.08433618
193	0xbd916b5f	-0.071005575
194	0xbd980eee	-0.074247226
195	0x3dc46ee6	0.09591465
196	0xbe1396f2	-0.1441305
197	0xbdfb670c	-0.12275514
198	0xbe683255	-0.2267545
199	0xbce0befc	-0.027434818
200	0xbd3d85fa	-0.046270348
201	0x3e07ee1b	0.13274424
202	0xbdea0669	-0.11427004
203	0xbde0ebba	-0.10982461
204	0x3b20207f	0.0024433432
205	0x3b028008	0.0019912738
206	0x3d891d17	0.066950016
207	0xbdcac4cb	-0.099008165
208	0x3d5e932f	0.054339584
209	0x3d9b6ac2	0.07588722
210	0xbe40798c	-0.18796366
211	0x3d254ae5	0.040354628
212	0x3e0551b0	0.13019443
213	0x3ce64723	0.028110093
214	0xbe681e03	-0.22667699
215	0xbe1d960e	-0.15389273
216	0xbe2bac59	-0.16764964
217	0xbe17675c	-0.14785522
218	0x3e65450a	0.22389618
219	0xbd6210cf	-0.05519181
220	0xbd16a799	-0.036780927
221	0x3e1e171d	0.15438505
222	0xbdef694a	-0.11690004
223	0xbe3e58fb	-0.18588631
224	0xbc8b0932	-0.016972158
225	0x3dd3b1a5	0.103366174
226	0x3dc43a9e	0.09581493
227	0x3c213a7a	0.009840602
228	0xbd0f1f2d	-0.03494184
229	0xbe29c625	-0.16579492
230	0x3e398f03	0.18120961
231	0x3db3ccda	0.08779307
232	0x3dc27887	0.09495645
233	0x3e454542	0.19264701
234	0xbe2a78d6	-0.16647658
235	0xbd9ad281	-0.07559682
236	0x3e4aafe8	0.19793665
237	0xbcc445da	-0.02395909
238	0x3e13d44b	0.14436452
239	0x3df2da4b	0.11858042
240	0xbdd66665	-0.10468749
241	0x3df7a9b1	0.12092913
242	0xbe0a5341	-0.13508321
243	0xbe4520fe	-0.19250867
244	0x3e314cc9	0.17314447
245	0xbe0a824b	-0.13526265
246	0x3e07d86a	0.13266149
247	0xbd2174c3	-0.039417993
248	0xbd297810	-0.041374266
249	0x3db8d7ee	0.0902556
250	0xbd94d1fb	-0.07266613
251	0x3e51e2ba	0.20496646
252	0xbc0c3053	-0.008556443
253	0xbe086256	-0.13318762
254	0x3d37ed39	0.044903968
255	0x3d519acc	0.051173016

conv.convs.2.bias f4 [64]
0	0x3d88d778	0.066817224
1	0x38feaa70	0.0001214341
2	0xbd128f20	-0.035781026
3	0x3b624f50	0.0034532137
4	0xbd3ceb53	-0.04612286
5	0x3d62ddc5	0.055387277
6	0xbe0d760c	-0.13814563
7	0xbc6e135a	-0.014530981
8	0x3da51d53	0.08062234
9	0x3d2e5578	0.042561978
10	0xbc5a842f	-0.013337179
11	0x3cb38e5b	0.021918466
12	0xbd76ca8c	-0.060251758
13	0x3cc6b040	0.024253964
14	0xbd3f9f3a	-0.04678271
15	0xbd08b231	-0.03337306
16	0xbd4c9098	-0.049942583
17	0xbd10182d	-0.035179306
18	0xbc17c3d1	-0.009262995
19	0xbd0a9602	-0.033834465
20	0x3c4ebead	0.012618703
21	0xbd18c5cc	-0.03729801
22	0xbce99b4b	-0.028516432
23	0xbd232b81	-0.03983641
24	0xbd4d03ba	-0.050052382
25	0x3cdc176e	0.02686664
26	0xbd64206d	-0.055694986
27	0x3b2890f5	0.0025721167
28	0xbb85ef1b	-0.0040873415
29	0x3da35bcd	0.07976494
30	0xbd2f30fc	-0.042771325
31	0x3d0295bd	0.031881083
32	0xbda49898	-0.080369174
33	0x3bc59c73	0.006030613
34	0xbdb49135	-0.088167585
35	0xbc715258	-0.014729105
36	0xbd480324	-0.04883112
37	0xbc33a0f2	-0.010963665
38	0xbd51b697	-0.051199522
39	0x3d9594ba	0.07303758
40	0x3cf2ac86	0.029623281
41	0x3d0133e4	0.031543627
42	0xbca8c56d	-0.020601952
43	0x3bbadcb2	0.0057025785
44	0x3c7059bc	0.014669832
45	0x3d065df2	0.032804437
46	0xbd3a94c2	-0.045552023
47	0xbd2e6c04	-0.04258348
48	0xbb1fffb1	-0.0024413879
49	0xbc9628db	-0.018330028
50	0x3c5122de	0.012764661
51	0x3d0c5869	0.034264002
52	0x3b3c6a44	0.0028749863
53	0xbcbded53	-0.023184454
54	0x3d176b2d	0.036967445
55	0xbdccb32e	-0.09995113
56	0x3cbf8acb	0.023381611
57	0xbc3512a4	-0.011051808
58	0x3cad70a8	0.021171883
59	0x3d5143a2	0.05108989
60	0x3bb9a521	0.005665437
61	0xbc9bce72	-0.01901934
62	0xbd40fc8f	-0.04711586
63	0xbd8686b8	-0.06568664

conv.convs.2.lin.weight f4 [64, 64]
0	0xbe43a9fb	-0.19107811
1	0x3e2f2f52	0.17107895
2	0x3e6b5137	0.229802
3	0x3c4c2ab6	0.012461355
4	0xbd8f7175	-0.07004062
5	0x3db0b594	0.08628383
6	0x3e02ce1b	0.12773935
7	0xbd019fee	-0.03164666
8	0xbcbac6d0	-0.02279988
9	0x3e689618	0.22713506
10	0x3c0a3107	0.008434541
11	0x3db82e1a	0.08993168
12	0xbe24049d	-0.16017385
13	0xbd293ec7	-0.041319635
14	0xba185bcd	-0.0005812019
15	0xbe29c411	-0.165787
16	0xbe2f2b76	-0.17106423
17	0x3c8cb889	0.017177837
18	0xbe469f94	-0.19396812
19	0xbe3ae2a7	-0.18250524
20	0x3e064535	0.13112338
21	0xbdbc3da4	-0.091914445
22	0x3d45901e	0.048233144
23	0xbe62b9cb	-0.22141187
24	0xbda359ee	-0.07976137
25	0x3ea2c889	0.3179362
26	0xbe1c4054	-0.15258914
27	0xbdf9430d	-0.12170992
28	0x3cc34c42	0.023840073
29	0x3e220bea	0.15824857
30	0x3e02d418	0.1277622
31	0x3c7e9e23	0.015540632
32	0xbe3a3697	-0.18184887
33	0xbded69f0	-0.115924716
34	0x3daf532d	0.085607864
35	0x3b9defaf	0.0048198323
36	0xbce231a0	-0.027611554
37	0xbd72f6ad	-0.05931728
38	0x3e1d1fcf	0.15344165
39	0x3e301986	0.17197236
40	0x3e13e77d	0.14443775
41	0x3d5a41f5	0.053285558
42	0xbdd99606	-0.10624318
43	0xbe270600	-0.16310883
44	0xbcf1537a	-0.02945875
45	0x3e2ec364	0.17066723
46	0x3d03a232	0.032137103
47	0xbd361e77	-0.044462647
48	0xbde1f4f8	-0.11033052
49	0x3e5315d7	0.206138
50	0xbe2a6a9b	-0.1664223
51	0xbe603948	-0.21896851
52	0x3e0ba3e3	0.13636737
53	0xbe330797	-0.17483364
54	0xbcd736b8	-0.02627121
55	0x3d5bbbe7	0.053645995
56	0x3e027e28	0.12743437
57	0xbe16545b	-0.14680617
58	0x3e0d0b55	0.13773854
59	0xbdd8f85a	-0.10594244
60	0x3d0b12d2	0.033953495
61	0x3e2a66f5	0.16640837
62	0x3dd44a6c	0.10365757
63	0x3e0a4a7f	0.1350498
64	0xbe1a9d04	-0.15098959
65	0xbd2d8ddf	-0.042371627
66	0xbe4039e3	-0.18772082
67	0x3d124530	0.035710514
68	0xbdcaace0	-0.098962545
69	0x3be11f72	0.0068702037
70	0xbe4e5ce8	-0.20152628
71	0xbdc98e92	-0.09841646
72	0x3e207bba	0.15672198
73	0xbcf3e25a	-0.029771019
74	0x3b907efd	0.0044096694
75	0xbd905cf5	-0.0704898
76	0xbdd3dd07	-0.10344892
77	0xbbc13abf	-0.0058968957
78	0x3e083650	0.13301969
79	0x3dd1f52d	0.10251842
80	0x3c874ed6	0.016517084
81	0xbdca0c23	-0.09865596
82	0x3db6765a	0.089092925
83	0xbcb11b16	-0.02161936
84	0x3dbc38aa	0.09190495
85	0xbdf22f91	-0.11825479
86	0x3d16edb7	0.036847796
87	0xbe1c9778	-0.15292156
88	0xbe4e6b90	-0.2015822
89	0x3d9cd5ce	0.076579675
90	0xbd16658e	-0.036717944
91	0x3e3b9390	0.1831801
92	0x3e1292fb	0.14313881
93	0xbddb8cb2	-0.10720195
94	0xbe4342f4	-0.1906851
95	0x3e28b634	0.16475755
96	0x3e4268bf	0.1898527
97	0xbd56511b	-0.052323442
98	0x3d1a880c	0.0377274
99	0x3ddb6437	0.10712474
100	0xbd66acfc	-0.056317315
101	0x3e27d796	0.16390833
102	0xbddce902	-0.1078663
103	0x3dd0ee49	0.10201699
104	0x3e2b0a02	0.16703036
105	0xbe3bfa79	-0.18357266
106	0x3e56e52e	0.20985863
107	0x3e146688	0.14492238
108	0x3dd71c27	0.105034165
109	0xbd75effa	-0.060043313
110	0xbe3d5b00	-0.18491745
111	0x3d2916b1	0.041281406
112	0xbd138d42	-0.036023386
113	0xbd66a951	-0.056313816
114	0x3e6929f6	0.22769913
115	0x3dcc28d3	0.09968724
116	0xbe2745a0	-0.16335154
117	0x3d4cb332	0.04997558
118	0x3d6a809f	0.05725157
119	0x3de0939a	0.10965653
120	0xbd2ec454	-0.0426677
121	0x3e1474f8	0.14497745
122	0xbd709066	-0.05873146
123	0xbdc4a4e1	-0.09601761
124	0xbe16edb2	-0.14739111
125	0xbe0d54f7	-0.13801943
126	0x3d55865c	0.05213009
127	0x3da6576c	0.08122143
128	0xbdbe6ac9	-0.092977114
129	0x3d2acc44	0.04169871
130	0xbe6aed0c	-0.22941989
131	0xbd8d8c9e	-0.06911586
132	0x3de66025	0.11248807
133	0xbdc5e1bd	-0.09662197
134	0xbe0607af	-0.13088869
135	0xbd91d91e	-0.0712149
136	0x3d784b96	0.06061896
137	0x3da9e575	0.082957186
138	0x3d3776d5	0.04479106
139	0xbd140f8f	-0.03614765
140	0xbd05ec86	-0.03269627
141	0xbd2efd8b	-0.042722266
142	0x3e0e883c	0.13919157
143	0x3e2f74c1	0.17134382
144	0xbda4467f	-0.080212586
145	0x3e67415e	0.2258353
146	0x3df9e37d	0.12201593
147	0xbe1876cb	-0.14889066
148	0xbe665f6c	-0.22497338
149	0x3d41746b	0.047230165
150	0xbdce49aa	-0.10072644
151	0xbd73b928	-0.05950275
152	0xbdde4a73	-0.10854044
153	0xbdcd92ca	-0.100377634
154	0x3d8efeac	0.069821686
155	0x3e256a62	0.16153863
156	0xbd2d5da9	-0.04232565
157	0xbd80b7cd	-0.06285057
158	0xbe5aee30	-0.21379924
159	0x3dfcd055	0.12344424
160	0xbe2be881	-0.16787912
161	0xbd3bfb68	-0.045894057
162	0x3c46ea15	0.01214077
163	0x3d6f6fa8	0.058456093
164	0xbe437934	-0.19089204
165	0x3cbadac1	0.022809388
166	0x3dddd645	0.10831884
167	0x3db1bad8	0.08678216
168	0xbe4b0a0c	-0.19828051
169	0xbe7c15ff	-0.24617766
170	0x3e65fe12	0.22460201
171	0xbe01214e	-0.12610361
172	0xbe20a8b0	-0.15689349
173	0x3d50ffd0	0.05102521
174	0xbd3e5da5	-0.046476025
175	0x3d931df0	0.071834445
176	0x3ca5f830	0.020259947
177	0x3e1cd954	0.15317279
178	0xbb8f11da	-0.0043661417
179	0xbe3f403c	-0.18676847
180	0x3dee0855	0.11622683
181	0xbe66b15f	-0.22528599
182	0xbdf5f7a8	-0.12010127
183	0x3dd98f81	0.10623074
184	0xbe8db5fa	-0.276779
185	0xbc36cd9d	-0.01115742
186	0xbe3ede3a	-0.1863946
187	0x399dca20	0.00030095968
188	0x3d85627d	0.06512926
189	0x3e4f15a9	0.20223106
190	0x3dbd6918	0.09248561
191	0xbe09eb58	-0.13468683
192	0x3dedffbb	0.11621042
193	0x3e35420f	0.1770098
194	0xbe36f729	-0.17867722
195	0x3e715ca6	0.23570499
196	0xbda59590	-0.080851674
197	0x3e245cce	0.16051027
198	0xbd40614c	-0.04696779
199	0x3e12e1a4	0.14343888
200	0xbc41ca5d	-0.011828032
201	0xbe247394	-0.16059715
202	0xbe0f04b4	-0.13966638
203	0xbe1ff651	-0.15621306
204	0x3e021236	0.1270226
205	0xbd9da5fb	-0.07697674
206	0xbe2aa588	-0.16664708
207	0xbbaf6543	-0.0053526475
208	0xbc803255	-0.015649
209	0xbd119ac0	-0.03554797
210	0xbbba7732	-0.0056904787
211	0x3e0d3716	0.13790545
212	0x3e59be30	0.21263957
213	0x3e62c9dc	0.22147316
214	0x3ddbf52f	0.107401244
215	0xbddb3fa0	-0.10705495
216	0xbe075e87	-0.13219653
217	0xbddf79f7	-0.10911935
218	0x3dc6ca44	0.09706548
219	0x3ca15244	0.019692548
220	0x3e78ff56	0.24316153
221	0x3e6d53ae	0.23176453
222	0x3e35f5ce	0.17769548
223	0xbd6afb7e	-0.057368748
224	0x3e02e538	0.12782753
225	0x3d589fce	0.052886777
226	0x3cf9b9d0	0.03048411
227	0xbd508989	-0.050912414
228	0xbd1d8d2c	-0.03846471
229	0xbe45207b	-0.19250672
230	0xbe10436f	-0.14088224
231	0xbe14da35	-0.14536364
232	0xbd204f99	-0.03913841
233	0xbe0afa9d	-0.13572164
234	0xbe2a622a	-0.16639009
235	0xbc71ad53	-0.014750796
236	0xbdd6e14d	-0.104921915
237	0x3dc29a21	0.09502054
238	0x3e21324f	0.15741847
239	0x3d499a35	0.04921933
240	0xbd4179a8	-0.04723516
241	0x3d1cef2d	0.038314033
242	0x3df336e2	0.118757024
243	0x3e1d1948	0.15341675
244	0x3e3b7ede	0.18310115
245	0x3e299b90	0.16563249
246	0x3d5e6467	0.05429497
247	0x3c0c5efc	0.008567568
248	0x3e2d3abd	0.16916938
249	0x3e5f18d1	0.2178681
250	0xbdfc92a6	-0.123326585
251	0x3e4ce9e6	0.200111
252	0xbd1e2fe7	-0.038619902
253	0xbde2cb6e	-0.110739574
254	0xbdd0e39c	-0.10199663
255	0xbcd74633	-0.02627859

conv.convs.3.bias f4 [64]
0	0x3bea9e68	0.007159997
1	0xbb9340f9	-0.0044938293
2	0xbcc7a118	-0.024368808
3	0xbc4a416a	-0.0123446975
4	0x3c605a41	0.013693393
5	0x3c3650f2	0.011127697
6	0xb9938e15	-0.00028143884
7	0x3c736b53	0.014857131
8	0x3cfec926	0.031101774
9	0x3d0558ee	0.032555513
10	0x3c59c9de	0.013292758
11	0xbd847a0d	-0.06468592
12	0xbd2fa074	-0.04287763
13	0xbe236ddd	-0.15959878
14	0x3c1aa245	0.009438102
15	0x3c4945c7	0.012284703
16	0xbdaf00bb	-0.08545061
17	0xbd5685d1	-0.05237371
18	0x3b6c0441	0.0036013278
19	0xbba49c60	-0.005023524
20	0xbd2c112b	-0.04200856
21	0x3bb24681	0.0054405336
22	0xbb3b84ea	-0.0028613159
23	0xbb78f124	-0.0037985528
24	0x3c35015a	0.0110476855
25	0x3cfd7562	0.030939762
26	0xbd851669	-0.06498415
27	0x3c3de0ef	0.011589273
28	0x3cfdfc20	0.031004012
29	0x3a13fd6b	0.0005645367
30	0xbd014774	-0.031562284
31	0xbb027a49	-0.0019909313
32	0x3c87128d	0.016488338
33	0x3b2ea854	0.0026650624
34	0xbb7e2be3	-0.0038783483
35	0xbc472888	-0.0121556595
36	0x3bb3d74f	0.0054883133
37	0xbcead337	-0.028665168
38	0x3c4eb96d	0.012617451
39	0x3c686eb6	0.014186552
40	0x3c34b7e7	0.011030174
41	0xba4db980	-0.0007847771
42	0xbcc43de0	-0.023955286
43	0xbc4cced9	-0.012500488
44	0xbbba4252	-0.0056841755
45	0x3c192607	0.009347445
46	0x3c366119	0.011131548
47	0xbd9599e2	-0.073047414
48	0xbd59ad7b	-0.05314396
49	0x3caa76a3	0.020808524
50	0xbadcd3f9	-0.0016847841
51	0xbc6ca580	-0.014443755
52	0xbc8a2b67	-0.016866399
53	0xbdcde0a0	-0.100526094
54	0xbc0413f7	-0.008061401
55	0x3c80b7df	0.015712677
56	0x3baba849	0.005238567
57	0x3c85e3e9	0.016344028
58	0x3a3f10b6	0.0007288562
59	0x3c9f5eee	0.019454446
60	0xbdc7e246	-0.09759955
61	0x3c5ee9ff	0.013605594
62	0x3c803f12	0.015655074
63	0xbcbf6662	-0.02336425

conv.convs.3.lin.weight f4 [64, 64]
0	0x3e38403c	0.17993253
1	0x3d320a6d	0.043466974
2	0x3db7514e	0.089510545
3	0xbe07e642	-0.1327143
4	0xbd6692b8	-0.056292266
5	0x3dcee01a	0.10101338
6	0xbe132ea9	-0.14373268
7	0xbcf6f12e	-0.0301443
8	0xbdd342d0	-0.10315478
9	0xbdb62552	-0.08893837
10	0xbc23b792	-0.009992497
11	0x3d78f392	0.06077916
12	0x3e31df54	0.17370349
13	0x3e73022c	0.23731297
14	0xbc6dbeb1	-0.014510796
15	0x3d62cc6c	0.055370733
16	0x3c145e7a	0.009055728
17	0x3d94cee8	0.07266027
18	0xbe4f4daa	-0.2024447
19	0x3e6e7f93	0.23290853
20	0x3db3a561	0.08771778
21	0x3bdbc2c1	0.006706566
22	0x3dfd52f5	0.123693384
23	0x3c6ffca3	0.014647636
24	0x3e8e13a9	0.27749375
25	0xbe2c9fbe	-0.16857812
26	0xbe4897d4	-0.19589168
27	0xbe0bddc4	-0.13658816
28	0x3cc44bde	0.023961958
29	0xbe21919e	-0.15778205
30	0xbdb8dbd6	-0.090263054
31	0x3e717e23	0.23583274
32	0xbe0e6e2e	-0.13909218
33	0xbdcec453	-0.100960396
34	0xbe2e809e	-0.17041251
35	0x3e27f193	0.16400747
36	0x3d3e2eff	0.046431538
37	0x3e9d433b	0.30715355
38	0xbe0fa35c	-0.1402716
39	0xbdfb5226	-0.12271528
40	0xbe142604	-0.14467627
41	0x3dc20887	0.09474283
42	0xbdabbe31	-0.083858855
43	0xbe5daa8a	-0.21647087
44	0xbcfa7b4a	-0.030576367
45	0x3dad525f	0.08462977
46	0x3e3444b2	0.1760433
47	0x3e4472b5	0.19184382
48	0xbe01e687	-0.12685595
49	0x3dafdfbc	0.08587596
50	0x3dfabc15	0.12242905
51	0x3d3f6520	0.0467273
52	0xbe3399e2	-0.1753917
53	0x3db2cef8	0.087308824
54	0x3cbea5fc	0.023272507
55	0x3e2cdb0d	0.16880436
56	0x3e4f2fde	0.20233104
57	0x3c33f411	0.010983483
58	0x3e87c2a8	0.26515698
59	0x3d026b2e	0.031840496
60	0xbdc692c6	-0.096959636
61	0xbdf1960e	-0.11796199
62	0xbd5c53e3	-0.053790938
63	0xbdb964ba	-0.09052415
64	0xbd2902f8	-0.041262597
65	0xbd1d6adb	-0.038431983
66	0x3e0ceb51	0.13761641
67	0xbc11b224	-0.00889257
68	0xbe204577	-0.15651499
69	0x3d36be72	0.044615217
70	0xbe09d5c7	-0.13460456
71	0x3e5556ab	0.20833842
72	0xbd8c2e30	-0.06844747
73	0x3dc5b8e8	0.09654409
74	0xbd82c2ae	-0.063847885
75	0x3c68e3f5	0.014214505
76	0xbe25c9c5	-0.1619025
77	0x3d75670f	0.059912737
78	0xbd5cdc94	-0.053921297
79	0x3deb3c1f	0.114860766
80	0x3e52f7df	0.20602368
81	0xbe0c61cf	-0.13709186
82	0xbe3414db	-0.1758608
83	0xbe276f3e	-0.1635103
84	0xbb82e5e1	-0.003994689
85	0x3d35512a	0.044266857
86	0xbdbace69	-0.09121401
87	0x3e516c76	0.20451531
88	0xbe5ae0fa	-0.21374884
89	0x3c4a1871	0.012334929
90	0x3e08d86a	0.13363805
91	0xbe5806e4	-0.21096379
92	0x3e211285	0.15729721
93	0xbdda61fa	-0.10663219
94	0x3da4a25d	0.08038781
95	0xbe08e6eb	-0.13369338
96	0xbd8c9baa	-0.06865628
97	0xbcbd6302	-0.0231185
98	0x3b25ff90	0.002532933
99	0xbd820592	-0.06348719
100	0x3db1bdd3	0.08678784
101	0xbde1479a	-0.10999985
102	0x3df27d9e	0.11840366
103	0x3ddff8fa	0.109361604
104	0xbcc2979c	-0.023753934
105	0x3e082a95	0.13297494
106	0x3de62eec	0.112394184
107	0xbe375b89	-0.17906012
108	0xbdee6041	-0.11639453
109	0xbdfd7f36	-0.12377779
110	0xbd13249a	-0.035923578
111	0x3c826c34	0.015920736
112	0xbcf9c1de	-0.03048795
113	0xbe436f6d	-0.19085474
114	0x3e38a70c	0.18032473
115	0xbc092e7d	-0.0083729
116	0xbd9bb9d5	-0.07603804
117	0x3bb1139a	0.005403948
118	0x3d52bc40	0.05144906
119	0xbc01ffb3	-0.007934499
120	0xbcce8a3d	-0.025212402
121	0xbe24de5d	-0.1610045
122	0x3dcd12a3	0.1001332
123	0x3cd6a4de	0.026201662
124	0x3d9e8891	0.07740892
125	0xbe24333b	-0.16035168
126	0x3e332fa3	0.1749864
127	0x3df7e224	0.1210368
128	0x3ce88a31	0.028386207
129	0xbd2cf925	-0.04222979
130	0x3d7e651d	0.062108148
131	0x3e51941d	0.20466657
132	0xbd372814	-0.044715956
133	0x3e0b14f4	0.13582212
134	0xbe4fd2a2	-0.20295194
135	0x3e8092d0	0.2511201
136	0xbdcbb070	-0.09945762
137	0xbe482332	-0.19544676
138	0xbe0b73f7	-0.13618456
139	0x3cf09dbe	0.029372092
140	0xbe2b126d	-0.16706248
141	0xbe459887	-0.19296466
142	0x3e6686ab	0.22512309
143	0x3e1b1f87	0.15148745
144	0x3da135a6	0.07871561
145	0x3de8a647	0.1135984
146	0xbd8d404d	-0.0689703
147	0xbda7eef6	-0.08199875
148	0xbd876b2d	-0.06612239
149	0x3d99442b	0.07483705
150	0xbe39272f	-0.18081354
151	0xbe1fef3c	-0.15618604
152	0x3e5b1c5f	0.21397541
153	0xbac447e4	-0.0014975038
154	0x3da8a723	0.08235004
155	0x3d2cd447	0.04219463
156	0xbd8ec62f	-0.06971394
157	0xbdc237f6	-0.0948333
158	0xbd8caf75	-0.06869403
159	0x3dcd3aa1	0.10020948
160	0xbc8ef8a3	-0.017452544
161	0xbe20d38f	-0.15705703
162	0x3df73964	0.12071493
163	0x3d9aebf6	0.07564537
164	0xbbe68753	-0.007035175
165	0x3e815fb9	0.25268343
166	0xbdf2abb0	-0.11849153
167	0x3caedeb4	0.021346428
168	0x3d2dd062	0.042435057
169	0x3e38ca6a	0.18045965
170	0xbda9717f	-0.08273601
171	0x3d8a6133	0.067568205
172	0xbb3f9751	-0.0029234479
173	0x3da67c1f	0.08129143
174	0x3da3d4c7	0.079995684
175	0xbe0b6d6f	-0.13615964
176	0x3d7a5a2c	0.06112115
177	0xbda41a89	-0.08012874
178	0xbe0c1665	-0.13680418
179	0xbdc3c309	-0.095586844
180	0x3e2e7bae	0.17039368
181	0x3e26ae30	0.16277385
182	0x3c27fdda	0.010253394
183	0x3e22d669	0.15902103
184	0xbe06c027	-0.13159238
185	0xbc3890b9	-0.011264973
186	0xbd9c8315	-0.076421894
187	0x3e1f65ec	0.15566224
188	0xbd914c62	-0.07094647
189	0xbc2f47b8	-0.010698251
190	0xbde6b4bc	-0.11264941
191	0xbdc89a5f	-0.09795069
192	0x3da284ff	0.07935523
193	0xbde5c658	-0.11219472
194	0xbe4b0960	-0.19827795
195	0xbd00dfbf	-0.03146338
196	0x3e401ce3	0.1876102
197	0x3d83d7df	0.064376585
198	0xbdaf26c6	-0.08552317
199	0xbd8c702a	-0.06857331
200	0xbddc3e12	-0.107540265
201	0x3e468356	0.19386038
202	0xbdeb9141	-0.11502314
203	0xbe15a593	-0.14613943
204	0xbda5b9c3	-0.08092072
205	0x3d54b8f0	0.051934183
206	0xbdbb4555	-0.091440834
207	0xbd17cc9b	-0.03706036
208	0x3ccadd02	0.024763588
209	0x3e001eb6	0.12511715
210	0xbd5e91ad	-0.054338146
211	0x3cd44c7a	0.025915373
212	0xbd674e7e	-0.05647134
213	0xbd6a739a	-0.057239152
214	0xbde9ed7d	-0.114222504
215	0xbdc12901	-0.09431649
216	0x3e59718f	0.21234725
217	0xbe10ec32	-0.14152601
218	0x3e5c819f	0.21533822
219	0xbd04fed7	-0.032469597
220	0xbdcfdd6b	-0.10149654
221	0xbe24f9d0	-0.16110921
222	0x3df5916d	0.119906284
223	0x3e25d032	0.16192701
224	0xbd9171e0	-0.07101798
225	0xbe170403	-0.14747624
226	0x3c8369dc	0.016041689
227	0xbde84702	-0.11341669
228	0x3ddcffce	0.10790978
229	0x3db62100	0.08893013
230	0x3cc87c69	0.024473386
231	0x3df22a3e	0.11824463
232	0xbdf3991a	-0.11894436
233	0xbd6a2663	-0.057165515
234	0xbdb29eee	-0.0872172
235	0x3c475d4c	0.01216824
236	0xbdc874be	-0.09787892
237	0x3e51490e	0.20438024
238	0xbd314c29	-0.043285523
239	0x3c39e843	0.011346879
240	0x3e330d71	0.17485596
241	0x3ddbeea3	0.10738876
242	0x3c94b735	0.018153766
243	0x3dcf2fd4	0.10116544
244	0xbdb4a1a4	-0.08819893
245	0x3dd79561	0.10526539
246	0x3dafe8c6	0.0858932
247	0xbe00c5f0	-0.12575507
248	0x3e09d9b4	0.13461953
249	0x3e05ed45	0.13078792
250	0xbdfd883c	-0.123795
251	0xbe0962a7	-0.13416539
252	0x3de04f07	0.10952573
253	0xbcc3ff61	-0.023925485
254	0x3b36e1b9	0.0027905537
255	0x3e834463	0.25638112

conv.convs.4.bias f4 [64]
0	0xb9474788	-0.00019004766
1	0xbbbd4c00	-0.005776882
2	0x3af09950	0.0018356238
3	0xbbcfaf27	-0.0063380185
4	0xbca30a80	-0.019902468
5	0x3b697f5d	0.0035628893
6	0x3c1d5b7b	0.00960433
7	0x3bb4a46a	0.0055127637
8	0xbb551268	-0.0032512192
9	0x3cb82f7d	0.022483582
10	0xbb2ff38f	-0.0026848053
11	0xbc234126	-0.009964263
12	0x38b04efe	8.4070474e-05
13	0xbcabf061	-0.020988645
14	0xbd1609f0	-0.03663057
15	0xbc160d48	-0.00915844
16	0xbc66a076	-0.014076343
17	0x3a9513f3	0.0011373743
18	0x3bf72204	0.007541897
19	0x3c3769ba	0.011194641
20	0x3c6ed665	0.014577483
21	0xbb83bf21	-0.004020587
22	0xba7012e6	-0.00091580895
23	0xbbd1c286	-0.006401363
24	0x39d8e776	0.00041371182
25	0x3be6fde1	0.0070493077
26	0x3b954abd	0.0045560286
27	0x3bbf173d	0.0058316276
28	0x3c244cbb	0.01002806
29	0x3c2b9028	0.010471381
30	0x3ac466c0	0.0014984235
31	0xbb910581	-0.004425705
32	0xbc408258	-0.011749826
33	0xbba4226c	-0.005008986
34	0x3c1579ab	0.009123246
35	0xbb6f09f4	-0.0036474438
36	0xbbff4dea	-0.0077912705
37	0xbc2e673d	-0.010644731
38	0x3c532654	0.012887556
39	0x3b35d492	0.002774511
40	0xbc5665cc	-0.013085794
41	0xbc1cc212	-0.009567754
42	0xbc1865d1	-0.009301619
43	0xbbbc5253	-0.0057471185
44	0x3c64fe09	0.013976582
45	0x3960a481	0.00021423587
46	0x3bc2cf74	0.0059451405
47	0xb9b3826d	-0.00034238715
48	0x3bc93476	0.006140287
49	0x3b5f6ba0	0.003409125
50	0xbb986652	-0.0046508694
51	0x3d24e9a5	0.040261883
52	0x3c409bd8	0.011755906
53	0x3ae4bbbe	0.0017450971
54	0x3bb68c00	0.0055708885
55	0x3c16d8b9	0.009206944
56	0x3a910967	0.0011065424
57	0xbc11aea9	-0.00889174
58	0x3b7f86ac	0.0038990183
59	0xbc2f442c	-0.010697406
60	0xba748af6	-0.0009328568
61	0x3c0b28b2	0.008493589
62	0x3b752247	0.0037404464
63	0xbbf6fdd5	-0.0075375834

conv.convs.4.lin.weight f4 [64, 64]
0	0x3d12046c	0.03564875
1	0xbe5224c9	-0.20521845
2	0x3e155765	0.1458412
3	0xbb056869	-0.0020356423
4	0x3e50cfc7	0.20391761
5	0x3e338300	0.17530441
6	0xbcc677d2	-0.024227057
7	0x3c2bcaa8	0.010485329
8	0x3c243d6a	0.010024408
9	0xbd0f48a1	-0.034981374
10	0x3c601741	0.013677419
11	0xbdfd44ad	-0.123666145
12	0x3e4dace2	0.20085481
13	0xbe68231c	-0.22669643
14	0x3d9565a0	0.07294774
15	0x3c8f892a	0.01752146
16	0xbd714d30	-0.058911502
17	0xbd393919	-0.04522047
18	0xbdce7804	-0.10081485
19	0xbe406e73	-0.18792133
20	0xbdd97565	-0.10618094
21	0xbe0103d6	-0.1259912
22	0x3e4b7d97	0.19872127
23	0xbe18c429	-0.14918579
24	0xbe2e3f3c	-0.1701631
25	0xbdb5d821	-0.08879114
26	0xbd904611	-0.07044614
27	0x3dc2015f	0.09472918
28	0x3d1bce2e	0.038038425
29	0xbd9f9c9c	-0.07793543
30	0x3c06a0aa	0.008217016
31	0x3df58329	0.119879074
32	0x3e6d6cff	0.2318611
33	0xbe48cab1	-0.1960857
34	0xbcec1d85	-0.02882267
35	0xbe169edb	-0.14709036
36	0x3d1300c3	0.0358894
37	0x3dd339eb	0.10313781
38	0x3ddf04af	0.10889565
39	0x3e34b164	0.17645794
40	0x3c11a036	0.008888295
41	0x3dff8b3b	0.12477728
42	0x3e21a3c9	0.15785135
43	0xbe1aacd2	-0.15104988
44	0xbdc6dbb4	-0.09709874
45	0x3e10f2f0	0.14155173
46	0x3e5fdcae	0.21861526
47	0xbdbb330d	-0.091405965
48	0x3d889cb5	0.066705145
49	0x3d5d4fd4	0.05403121
50	0x3d95d40a	0.07315834
51	0x3cf6ee7f	0.03014302
52	0x3e47d43a	0.19514552
53	0x3de56590	0.11201012
54	0xbdb8b48b	-0.09018811
55	0x3e249544	0.16072565
56	0x3e2d3ef7	0.1691855
57	0x3e165a05	0.14682777
58	0xbe3812ad	-0.17975874
59	0xbcdbe251	-0.026841315
60	0x3bc93ef0	0.006141536
61	0x3e3c918b	0.18414895
62	0xbe02bee1	-0.12768127
63	0xbd3fcfef	-0.04682916
64	0xbde71cf2	-0.11284818
65	0xbdb6e61c	-0.08930609
66	0xbd2c125b	-0.042009693
67	0xbe417151	-0.18890883
68	0xbd1e18b6	-0.038597785
69	0x3e40f9ed	0.18845339
70	0xbe2cf3ae	-0.16889831
71	0x3dd0269e	0.10163616
72	0x3d64290f	0.05570322
73	0x3e60fb37	0.21970831
74	0xbdc5bbb1	-0.0965494
75	0x3e00697d	0.1254024
76	0x3c4e74c6	0.012601083
77	0xbd2412bf	-0.04005694
78	0xbd706349	-0.058688436
79	0x3d9d951a	0.076944545
80	0x3d1f35e4	0.038869753
81	0xbe19ef52	-0.150327
82	0xbd9d0c87	-0.07668405
83	0xbc17b24a	-0.009258816
84	0xbd5aee67	-0.053450014
85	0x3dbd0c80	0.092309
86	0x3dd89d8e	0.10576926
87	0x3ce7ac8a	0.028280515
88	0xbd7accaf	-0.061230358
89	0xbdbc3b0a	-0.09190948
90	0x3e124f0d	0.14287968
91	0xbe45133f	-0.19245623
92	0xbd1f6709	-0.03891662
93	0xbe0c2488	-0.1368581
94	0xbe428c82	-0.18998912
95	0x3d14c0f4	0.036316827
96	0x3e3fa005	0.18713386
97	0xbd8d4d70	-0.06899536
98	0x3d5a41ff	0.053285595
99	0x3e102493	0.14076452
100	0x3ce3dbfc	0.027814858
101	0xbd1b2fb2	-0.037887283
102	0xbdd362bc	-0.103215665
103	0x3b3aec9c	0.0028522378
104	0x3e4bd1b5	0.19904216
105	0xbd527283	-0.051378738
106	0x3dea93bf	0.114539616
107	0x3e2d072f	0.16897272
108	0xbcca319e	-0.024681862
109	0x3e116610	0.1419909
110	0xbdd545e7	-0.104137234
111	0x3d977898	0.07396048
112	0x3bb9f6ec	0.0056751873
113	0xbde3bf91	-0.11120523
114	0x3d73fdde	0.05956828
115	0xbda8941d	-0.08231375
116	0xbe0cbd1d	-0.13744016
117	0xbde278c8	-0.110581934
118	0x3e35944d	0.17732354
119	0x3db6a481	0.089180954
120	0xbd464507	-0.048405673
121	0x3e5f9dc0	0.2183752
122	0xbd86e38f	-0.06586372
123	0xbc31559e	-0.010823635
124	0x3ca30d57	0.019903822
125	0xbe1304e7	-0.14357339
126	0x3da00ff1	0.078155406
127	0x3e1dd016	0.1541141
128	0xbe47d73f	-0.19515704
129	0x3ca5f4cd	0.020258332
130	0x3deb84df	0.114999525
131	0xbd1dcab2	-0.038523383
132	0xbde7a76f	-0.11311232
133	0x3d43fab8	0.047846526
134	0xbe32af2d	-0.17449637
135	0x3dffe753	0.124952935
136	0x3e101673	0.14071064
137	0x3ddeace9	0.10872824
138	0xbe095ba7	-0.13413869
139	0xbe49c512	-0.19704083
140	0x3da94ac7	0.08266216
141	0x3e59b435	0.2126015
142	0xbd7bccbd	-0.06147455
143	0x3c8f61eb	0.017502746
144	0x3deae686	0.1146975
145	0xbd9aa800	-0.07551575
146	0x3dd9cf20	0.10635209
147	0x3d843564	0.06455496
148	0x3e13b36a	0.1442391
149	0xbe280ae1	-0.164104
150	0x3e0023e9	0.12513699
151	0x3db03c4a	0.08605249
152	0x3d89b956	0.06724803
153	0xbd98e5f0	-0.07465732
154	0x3dfd6dd3	0.12374463
155	0xbe48b0f4	-0.19598752
156	0xbe2f317f	-0.17108725
157	0x3e12fee0	0.1435504
158	0x3dcd9524	0.10038212
159	0x3dce180f	0.100631826
160	0x3e314b1a	0.17313805
161	0x3dc00539	0.09375996
162	0xbdf05dd4	-0.11736646
163	0xbd81fbf2	-0.06346883
164	0x3dda640b	0.10663613
165	0xbdb60337	-0.08887332
166	0x3e1e3c7c	0.1545276
167	0xbd0cd98e	-0.034387164
168	0x3c964220	0.018342078
169	0x3dd01ccf	0.10161745
170	0xbe320861	-0.17386009
171	0xbdaa2027	-0.08306914
172	0xbe2b776c	-0.16744775
173	0x3e2f8be0	0.17143202
174	0x3de45345	0.11148695
175	0xbcb23553	-0.021753943
176	0xbdb6fbde	-0.089347586
177	0xbd81cd62	-0.06338002
178	0x3d5c946f	0.053852495
179	0x3baedcf9	0.0053364006
180	0xbe041f79	-0.12902631
181	0xbdaa3526	-0.083109185
182	0xbe4bb58f	-0.19893478
183	0x3a924eeb	0.0011162435
184	0x3de8485a	0.11341925
185	0x3dec98c5	0.11552576
186	0xbe2b3c40	-0.16722202
187	0x3e23724e	0.15961573
188	0x3e24ca18	0.16092718
189	0x3da524bd	0.08063648
190	0xbe3d270e	-0.1847193
191	0xbd8f7879	-0.070054
192	0xbddc391f	-0.107530825
193	0x3c615000	0.013751984
194	0xbe4a1d3f	-0.19737719
195	0xbe0a2f6a	-0.1349465
196	0xbbe07298	-0.006849598
197	0x3e2f042b	0.17091434
198	0xbe09a900	-0.13443375
199	0xbdc68a10	-0.09694302
200	0x3e253d13	0.16136579
201	0xba767912	-0.0009402196
202	0x3ddf1067	0.108918004
203	0xbcf23580	-0.029566526
204	0x3e6b5168	0.22980273
205	0xbe90d663	-0.28288564
206	0x3e6579ac	0.22409695
207	0x3e5891bd	0.21149345
208	0x3e76998f	0.24082015
209	0x3e4adb5d	0.19810243
210	0xbddc68f7	-0.10762208
211	0x3e3612b7	0.17780577
212	0x3d91b1f6	0.071140215
213	0xbdf63311	-0.12021459
214	0x3d21c336	0.03949281
215	0x3ca99381	0.020700218
216	0x3e175a2d	0.14780493
217	0x3e33d81f	0.17562912
218	0xbdaba8c2	-0.083817974
219	0x3e0a9d00	0.13536453
220	0x3dfa7ae7	0.12230473
221	0xbd3205c2	-0.043462522
222	0x3e210fb6	0.1572865
223	0xbdece894	-0.11567798
224	0x3e5ab5f8	0.21358478
225	0x3e2eab2d	0.17057486
226	0x3e1772d4	0.14789897
227	0x3e20e7ac	0.15713376
228	0xbd093ecd	-0.033507157
229	0x3da20002	0.07910158
230	0x3d829372	0.06375779
231	0x3d9bdf16	0.0761091
232	0xbc9dbd03	-0.019255167
233	0xbddbadc5	-0.10726503
234	0x3d5a7d47	0.05334213
235	0x3e43695e	0.19083163
236	0xbe59ecd0	-0.21281743
237	0x3d519466	0.051166914
238	0xbd6c4c90	-0.057690203
239	0xbe14a03d	-0.14514251
240	0x3e6bfabb	0.23044865
241	0x3d234a27	0.03986564
242	0x3e78ef85	0.2431012
243	0x3da3cd8a	0.07998188
244	0x3e18af86	0.14910707
245	0x3d0feb06	0.035136245
246	0x3e1ea739	0.15493478
247	0x3e0adfbb	0.13561909
248	0x3ccbb848	0.024868146
249	0x3e3e1f56	0.18566641
250	0x3df7075e	0.12061952
251	0xbc0500a5	-0.008117829
252	0xbe32f922	-0.17477849
253	0xbdea9b91	-0.11455453
254	0xbd21cc15	-0.03950127
255	0x3e2dec0c	0.16984576

lin.weight f4 [64, 128]
0	0xbcb87a68	-0.022519305
1	0xbafc0d7d	-0.0019230094
2	0x3cab331a	0.02089839
3	0xbd908eae	-0.07058464
4	0x3d1313ec	0.03590767
5	0xbcc26eb3	-0.023734426
6	0x3d50a549	0.05093888
7	0xbd901bd9	-0.070365615
8	0xbcd2e0fe	-0.02574205
9	0xbd8ad0d1	-0.0677811
10	0xbd95a383	-0.07306578
11	0xbc7670e0	-0.01504156
12	0x3dde7f7e	0.10864161
13	0x3d11a98f	0.035562094
14	0x3cd79b6b	0.026319226
15	0xbd6cba6d	-0.057794977
16	0xbd8353ec	-0.06412491
17	0xbcd9bed4	-0.026580252
18	0x3a1b3496	0.00059206167
19	0x3d0310f2	0.031998582
20	0x3c685c50	0.014182165
21	0xbdc5159d	-0.09623263
22	0x3c0eff62	0.00872788
23	0x3d14c77d	0.03632306
24	0xbc88968f	-0.016673354
25	0x3d39ff89	0.045409713
26	0x3c81907e	0.01581597
27	0x3d668e92	0.05628831
28	0x3d3a3350	0.04545909
29	0x3d953170	0.0728482
30	0xbd10def0	-0.03536886
31	0xbbf271da	-0.007398826
32	0xbd8aff64	-0.06786993
33	0x3d35ba0b	0.044366878
34	0xbd2b1fbc	-0.04177831
35	0xbcaa8570	-0.020815581
36	0x3c428d99	0.01187458
37	0x3bc5112b	0.0060140095
38	0xbd776694	-0.06040056
39	0x3bd8adf6	0.0066125346
40	0xbbb84acc	-0.005624151
41	0x3dcc8005	0.09985355
42	0xbd95031e	-0.07275985
43	0x3d393fb5	0.04522677
44	0xbd181a15	-0.03713425
45	0xbdb27624	-0.0871394
46	0x3cc4c651	0.024020346
47	0xbdcd16c2	-0.10014106
48	0x3d3d24b8	0.046177596
49	0xbcf5fc64	-0.030027576
50	0xbc36800a	-0.011138925
51	0x3cb4dd45	0.022078166
52	0x3d9305a8	0.07178813
53	0xbc2e1cd8	-0.010626994
54	0x3d61b7b5	0.055106837
55	0x3d8465ea	0.06464751
56	0x3b87fb06	0.0041497974
57	0xbd1f9b20	-0.038966298
58	0x3d04ab7d	0.032390106
59	0x3d16e153	0.03683598
60	0xbda6f07d	-0.08151338
61	0xbd5ccdc3	-0.053907167
62	0xbd8656af	-0.06559502
63	0x3d796a90	0.06089264
64	0xbdd21697	-0.10258215
65	0x3d69512a	0.05696217
66	0xbbc2704c	-0.005933797
67	0xbd815473	-0.063149355
68	0xbe86f2e1	-0.26357177
69	0x3ea204f4	0.31644404
70	0x3ec68c41	0.3877888
71	0x3db56409	0.08856971
72	0xbeb5b425	-0.35489002
73	0xbe49a70e	-0.19692633
74	0xbe534ed1	-0.20635535
75	0xbf115ffa	-0.56787074
76	0xbd88ab22	-0.06673266
77	0xbf2df79d	-0.6795595
78	0xbe9993b8	-0.29995513
79	0xbe8d7608	-0.27629113
80	0xbf0747a6	-0.528437
81	0x3eb62fb1	0.3558326
82	0x3f00bc66	0.50287473
83	0x3efe845e	0.49710363
84	0x3f13bb43	0.57707614
85	0xbe46575f	-0.19369267
86	0xbeb9ad9f	-0.36265275
87	0xbe5b7e38	-0.21434867
88	0x3e51126f	0.20417188
89	0x3e969fd5	0.29418817
90	0x3e8b0c40	0.27157784
91	0x3f1366f1	0.5757895
92	0x3ebad4d2	0.36490494
93	0x3e5d399b	0.21604006
94	0xbea2ae2e	-0.31773514
95	0x3a7305cb	0.00092705776
96	0xbe9bea03	-0.30451974
97	0xbec124a2	-0.3772326
98	0x3ebb65bd	0.36601058
99	0x3e1a3dc1	0.1506262
100	0xbe9fa834	-0.31183016
101	0xbe9cfd34	-0.3066193
102	0x3e98439b	0.2973908
103	0x3ecc597d	0.39912024
104	0xbe8e8219	-0.27833632
105	0xbef42947	-0.47687742
106	0xbeec6504	-0.4617082
107	0xbeb0d92a	-0.34540683
108	0x3eb0e95d	0.34553042
109	0x3e640b74	0.22269994
110	0x3d18fed5	0.0373524
111	0x3f00ff1f	0.50389284
112	0x3e467dd2	0.19383934
113	0xbe4372fc	-0.19086832
114	0xbdd4cbaa	-0.10390408
115	0x3e905bc1	0.28195003
116	0x3eb55ad2	0.35420853
117	0x3d8220ca	0.0635391
118	0x3eba16ba	0.36345464
119	0x3f0afdc7	0.54293483
120	0xbd498e02	-0.049207695
121	0xbe6be9e9	-0.23038448
122	0xbcc1be31	-0.02365026
123	0xbf0f6850	-0.56018543
124	0xbcd2010a	-0.025635261
125	0x3e9f4a4a	0.31111366
126	0x3e5af01c	0.21380657
127	0xbec15ff6	-0.37768525
128	0x3d8825b1	0.06647814
129	0x3cd15720	0.02555424
130	0xbc01a59b	-0.007913019
131	0x3d659e78	0.05605933
132	0x3d19b3f9	0.03752515
133	0xbd43e3b1	-0.047824565
134	0x3c4f7802	0.012662889
135	0xbd398e6b	-0.045301836
136	0xbc207571	-0.009793625
137	0x3d75c613	0.06000335
138	0xbd93f94c	-0.07225284
139	0x3cb23093	0.021751678
140	0xbca12250	-0.019669682
141	0x3e07334d	0.13203163
142	0x3dbf9aa9	0.09355671
143	0xbc1f0191	-0.009704963
144	0x3b231405	0.0024883759
145	0xbcf09415	-0.029367486
146	0xbcc824a5	-0.024431536
147	0xbc79c905	-0.015245681
148	0xbd28b3f8	-0.041187257
149	0x3d4b7ecb	0.049681466
150	0xbcd4e587	-0.025988353
151	0x3d144093	0.036194395
152	0xbd788a78	-0.06067893
153	0xbd651818	-0.05593118
154	0x3d6b48c5	0.057442445
155	0xbd7b7f48	-0.06140068
156	0xbb460a1a	-0.0030218423
157	0xbc39b021	-0.011333496
158	0x3d3a9edf	0.045561668
159	0xbca2b7a6	-0.019862961
160	0x3cc8b5a0	0.024500668
161	0x3d88fa6a	0.06688388
162	0xbdc13b42	-0.09435131
163	0x3d2882eb	0.041140478
164	0x3d09d4fe	0.03365039
165	0x3d916721	0.070997484
166	0x3d19b188	0.037522823
167	0xbd2ed964	-0.04268779
168	0x3d0cb3e6	0.034351252
169	0x3d3425d2	0.04398138
170	0xbd52ed02	-0.05149556
171	0x3c9f9fe2	0.019485418
172	0x3d51a209	0.05117992
173	0x374f6000	1.2360513e-05
174	0x3d0cd471	0.034382287
175	0x3bb224e6	0.0054365275
176	0xbd36c5f8	-0.04462239
177	0x3d118982	0.03553153
178	0xbce311ec	-0.027718507
179	0xbd928819	-0.07154865
180	0xbd992676	-0.07478039
181	0x3c80023b	0.015626064
182	0xba282ac6	-0.0006415065
183	0x3c5abc35	0.013350536
184	0xbd2516dd	-0.040305007
185	0x3d03fe98	0.03222522
186	0x3c7bdaec	0.015372019
187	0x3c25923e	0.010105668
188	0xbd7ad8ba	-0.061241843
189	0x3d134cb7	0.035961833
190	0xbdacdb08	-0.084402144
191	0xbc4aa20b	-0.012367736
192	0x3d9c2768	0.07624704
193	0xbe156668	-0.14589846
194	0x3d6290de	0.055313937
195	0x3efcb843	0.4935933
196	0xbed24f21	-0.41075996
197	0xbe52b7df	-0.20577954
198	0xbead6a7f	-0.33870313
199	0xbeb76188	-0.35816598
200	0x3ecdf9a2	0.40229517
201	0x3ef6c76b	0.4819902
202	0xbd1cbca0	-0.038265824
203	0x3ed44ef7	0.41466495
204	0xbe6fced3	-0.23418741
205	0x3f197fb4	0.59960485
206	0xbeb0641a	-0.3445137
207	0x3f0b65ef	0.54452413
208	0x3e5295aa	0.20564905
209	0x3e966011	0.29370168
210	0xbe86805e	-0.2626981
211	0xbee31871	-0.44354585
212	0xbf032b63	-0.5123808
213	0x3ed22361	0.41042617
214	0x3f12bba1	0.5731755
215	0x3eceedbb	0.4041575
216	0x3e4cefeb	0.20013396
217	0xbed1b584	-0.40958798
218	0xbd1baee2	-0.038008578
219	0xbefa8777	-0.48931476
220	0xbf07c78a	-0.5303885
221	0xbe932da8	-0.2874577
222	0x3d57f8c2	0.05272747
223	0xbea3cae5	-0.31990734
224	0x3eff77ed	0.49896184
225	0x3ed9233b	0.4240969
226	0xbf075f48	-0.5287976
227	0xbced887f	-0.02899575
228	0x3ddec006	0.10876469
229	0x3f0e3c61	0.5556088
230	0x3dcfb9bc	0.10142848
231	0xbecb8b89	-0.39754894
232	0x3f09fb7e	0.5389937
233	0x3df1bae7	0.11803227
234	0x3f01b4ce	0.5066651
235	0x3ef1b653	0.47209415
236	0xbef50392	-0.47854286
237	0xbe86cfb0	-0.26330328
238	0xbe966a57	-0.29378006
239	0xbef29ad0	-0.47383738
240	0xbebe9611	-0.37223867
241	0xbde1302c	-0.10995516
242	0x3e04f19a	0.12982789
243	0x3e97980d	0.29608193
244	0xbf07b7e3	-0.53014964
245	0xbd82ff53	-0.063963555
246	0xbe30c10f	-0.17261146
247	0xbed1531d	-0.40883723
248	0xbe0c7c8c	-0.13719386
249	0x3e48624c	0.19568747
250	0x3e0fa481	0.14027597
251	0x3eedc898	0.46442103
252	0x3e5c4f38	0.21514595
253	0xbeff25ff	-0.49833676
254	0xbea45eeb	-0.32103667
255	0x3f0c72f9	0.54862934

lin.bias f4 [64]
0	0x3e93b4c5	0.28848854
1	0x3eb6c8ed	0.3570017
2	0x3ed28054	0.41113532
3	0xbe9e8d5e	-0.3096723
4	0x3edae908	0.42755914
5	0x3eb2c706	0.34917468
6	0x3eaef84b	0.34173808
7	0xbd308f3e	-0.043105356
8	0xbe570f2a	-0.21001878
9	0x3d5ea989	0.0543609
10	0xbe64017c	-0.22266191
11	0xbe7bf5da	-0.24605504
12	0x3e8d164a	0.27556068
13	0x3e82ae25	0.25523487
14	0xbe302f08	-0.17205441
15	0xbe3db716	-0.18526873
16	0x3d96e99e	0.07368778
17	0x3ef1376b	0.47112593
18	0xbdf27e17	-0.11840456
19	0x3e7b73fe	0.24555966
20	0x3e12f8c2	0.14352706
21	0xbd2fc2ff	-0.042910572
22	0xbe896349	-0.2683356
23	0x3d2967f6	0.04135891
24	0xbe4a6bc7	-0.19767676
25	0x3ec559da	0.38545114
26	0x3e9920c8	0.29907823
27	0xbd741a92	-0.059595652
28	0x3e8d9e9c	0.27660072
29	0xbcc3e646	-0.023913514
30	0x3c6f6183	0.014610651
31	0xbd8ed485	-0.06974129
32	0x3ec5e58a	0.38651687
33	0x3e521ee2	0.20519593
34	0xbd46293a	-0.04837916
35	0xbec1441c	-0.37747276
36	0xbd36baf3	-0.044611882
37	0x3f1c1b90	0.6097956
38	0x3e0b7d46	0.13622007
39	0xbd82aaf6	-0.063802645
40	0x3ec4fafd	0.3847274
41	0xbe997a2c	-0.29976022
42	0x3ed2ec05	0.41195694
43	0x3e824706	0.25444812
44	0xbe8e7d2c	-0.27829874
45	0x3e8a4361	0.2700453
46	0xbd42db92	-0.04757268
47	0x3e6fe2f5	0.23426421
48	0xbdab7101	-0.08371163
49	0x3d964819	0.0733797
50	0x3e330a50	0.17484403
51	0xbd1fa497	-0.038975324
52	0x3dbf1632	0.09330405
53	0x3ee4099d	0.44538584
54	0x3d7eddc7	0.062223222
55	0xbe66c526	-0.22536144
56	0xbd0dbd16	-0.034604155
57	0x3f13a989	0.57680565
58	0x3ee628e4	0.44953072
59	0xbdda35d6	-0.106548
60	0x3ee31499	0.44351652
61	0xbdb66ca4	-0.0890744
62	0xbe87f597	-0.26554558
63	0xbe542f06	-0.20721063

out.weight f4 [2, 64]
0	0xbe2be40a	-0.16786209
1	0x3de9fad4	0.11424795
2	0xbed95d5c	-0.4245404
3	0x3e8066bf	0.2507839
4	0xbe6f1367	-0.23347245
5	0xbe8ed66a	-0.2789796
6	0x3df8ee52	0.12154831
7	0x3d48d4ac	0.049030945
8	0x3d836697	0.06416052
9	0xbd5fe32d	-0.05466001
10	0x3e321409	0.17390455
11	0x3e400226	0.1875082
12	0x3d72571a	0.059165098
13	0xbd8f0d3d	-0.06984947
14	0x3db99728	0.09062034
15	0x3d643080	0.055710316
16	0x3c8053bc	0.015664928
17	0xbeaf72ec	-0.34267366
18	0x3db7cbcb	0.08974417
19	0xbe254dbe	-0.16142938
20	0xbba4d027	-0.0050296965
21	0xbdbdbdfe	-0.09264754
22	0x3db5d5d9	0.08878679
23	0xbd0a7eb9	-0.03381226
24	0x3d9c862a	0.07642777
25	0x3e025829	0.12728943
26	0x3ccbf4f1	0.02489707
27	0xbda660a9	-0.08123905
28	0x3dc50003	0.09619143
29	0x3b4bdcdc	0.0031106984
30	0x3c1da743	0.009622398
31	0x3bf3abd5	0.0074362555
32	0xbea91258	-0.33021808
33	0x3dacb119	0.08432216
34	0x3d3e0f0e	0.046401076
35	0x3dfff69a	0.124982074
36	0xbdaf2774	-0.08552447
37	0xbe9b7f8e	-0.30370754
38	0xbd25249d	-0.04031812
39	0xbd7562b6	-0.05990859
40	0x3dcb9084	0.099396735
41	0x3de4cfcd	0.11172447
42	0xbe90babe	-0.28267473
43	0xbd2cc121	-0.04217637
44	0x3df5d8e3	0.120042585
45	0xbdb28110	-0.08716023
46	0xbd96d0a3	-0.07364013
47	0xbd80ce92	-0.062894
48	0x3d382682	0.0449586
49	0x3dcdf74a	0.10056932
50	0xbd9147ff	-0.0709381
51	0xbd7319e6	-0.05935087
52	0x3cfaa4e2	0.0305962
53	0xbe589f40	-0.21154499
54	0x3c1399cb	0.009008835
55	0x3e1ebf04	0.15502554
56	0xba665faa	-0.0008788059
57	0xbee60439	-0.44925097
58	0xbe87e0d6	-0.26538724
59	0xbd0d6ede	-0.03452956
60	0xbe78d103	-0.24298482
61	0x3ce5d610	0.028056175
62	0x3e506d56	0.20354208
63	0x3cf24bb4	0.029577114
64	0x3e48a991	0.19595934
65	0xbdf77ec1	-0.12084723
66	0x3eb7b7d5	0.3588244
67	0xbd9737c0	-0.0738368
68	0x3e222280	0.15833473
69	0x3e0eb12b	0.13934772
70	0xbdf658fa	-0.1202869
71	0x3d70f948	0.058831483
72	0xbe166004	-0.14685065
73	0xbd1d0955	-0.038338978
74	0x3c8a13fe	0.016855236
75	0x3cd2e6aa	0.025744755
76	0xbd25d4d1	-0.04048616
77	0x3e405b17	0.18784748
78	0xbad062df	-0.0015898607
79	0xbd3c28fa	-0.045937516
80	0x3d949f33	0.07256927
81	0x3e9fb667	0.3119385
82	0x3c7c9b27	0.015417851
83	0x3b82d643	0.003992827
84	0x3de4d421	0.11173273
85	0x3c949826	0.018138956
86	0xbd75120b	-0.05983166
87	0x3c7cd527	0.015431679
88	0xbd012d1f	-0.03153717
89	0xbdab987b	-0.08378693
90	0xbdad43d4	-0.08460203
91	0xbd9a46e3	-0.07533052
92	0xbde2f22e	-0.11081348
93	0xb72896be	-1.0048678e-05
94	0x3b44c78a	0.003002616
95	0x3dbff8f4	0.09373656
96	0x3e597487	0.21235858
97	0xbc675baa	-0.0141209755
98	0xbdb3fdc6	-0.08788638
99	0xbdf23369	-0.11826212
100	0xbc95685f	-0.018238245
101	0x3f0bd6d2	0.54624665
102	0xbdc2fd78	-0.095210016
103	0xbd748ed0	-0.05970651
104	0xbe58857c	-0.2114467
105	0xbd9f4f41	-0.07778788
106	0x3e1edbdd	0.15513559
107	0x3dc1935a	0.09451933
108	0xbe1c254a	-0.152486
109	0x3e2142f4	0.15748197
110	0x3d98fc5c	0.07470009
111	0x3c977ab3	0.018491125
112	0xbcd26624	-0.02568347
113	0x3ded4a26	0.11586408
114	0xbe0b42d2	-0.13599709
115	0xbd6680db	-0.05627523
116	0xbda93086	-0.08261208
117	0x3ebec4d3	0.3725954
118	0x3b804c7f	0.003915369
119	0xbde120a3	-0.10992553
120	0xba2a11fe	-0.00064876664
121	0x3e8da7ec	0.27667177
122	0x3e3843c3	0.17994599
123	0xbc5ea997	-0.013590238
124	0x3e9b0bf4	0.30282557
125	0x3da234ee	0.07920252
126	0xbd62929d	-0.055315603
127	0xbe57f8ff	-0.21091078

out.bias f4 [2]
0	0xbe1dc92d	-0.15408774
1	0x3dbf0604	0.09327319
